lilight/model.pt (torch, 222142 bytes, 12 tensors)

I f4 [64, 64]
1.0 0.0 0.0 0.0 0.0 0.0 0.0 0.0
0.0 0.0 0.0 0.0 0.0 0.0 0.0 0.0
0.0 0.0 0.0 0.0 0.0 0.0 0.0 0.0
0.0 0.0 0.0 0.0 0.0 0.0 0.0 0.0
0.0 0.0 0.0 0.0 0.0 0.0 0.0 0.0
0.0 0.0 0.0 0.0 0.0 0.0 0.0 0.0
0.0 0.0 0.0 0.0 0.0 0.0 0.0 0.0
0.0 0.0 0.0 0.0 0.0 0.0 0.0 0.0
0.0 1.0 0.0 0.0 0.0 0.0 0.0 0.0
0.0 0.0 0.0 0.0 0.0 0.0 0.0 0.0
0.0 0.0 0.0 0.0 0.0 0.0 0.0 0.0
0.0 0.0 0.0 0.0 0.0 0.0 0.0 0.0
0.0 0.0 0.0 0.0 0.0 0.0 0.0 0.0
0.0 0.0 0.0 0.0 0.0 0.0 0.0 0.0
0.0 0.0 0.0 0.0 0.0 0.0 0.0 0.0
0.0 0.0 0.0 0.0 0.0 0.0 0.0 0.0
0.0 0.0 1.0 0.0 0.0 0.0 0.0 0.0
0.0 0.0 0.0 0.0 0.0 0.0 0.0 0.0
0.0 0.0 0.0 0.0 0.0 0.0 0.0 0.0
0.0 0.0 0.0 0.0 0.0 0.0 0.0 0.0
0.0 0.0 0.0 0.0 0.0 0.0 0.0 0.0
0.0 0.0 0.0 0.0 0.0 0.0 0.0 0.0
0.0 0.0 0.0 0.0 0.0 0.0 0.0 0.0
0.0 0.0 0.0 0.0 0.0 0.0 0.0 0.0
0.0 0.0 0.0 1.0 0.0 0.0 0.0 0.0
0.0 0.0 0.0 0.0 0.0 0.0 0.0 0.0
0.0 0.0 0.0 0.0 0.0 0.0 0.0 0.0
0.0 0.0 0.0 0.0 0.0 0.0 0.0 0.0
0.0 0.0 0.0 0.0 0.0 0.0 0.0 0.0
0.0 0.0 0.0 0.0 0.0 0.0 0.0 0.0
0.0 0.0 0.0 0.0 0.0 0.0 0.0 0.0
0.0 0.0 0.0 0.0 0.0 0.0 0.0 0.0
00000000: 0000 803f 0000 0000 0000 0000 0000 0000
00000010: 0000 0000 0000 0000 0000 0000 0000 0000
00000020: 0000 0000 0000 0000 0000 0000 0000 0000
00000030: 0000 0000 0000 0000 0000 0000 0000 0000
00000040: 0000 0000 0000 0000 0000 0000 0000 0000
00000050: 0000 0000 0000 0000 0000 0000 0000 0000
00000060: 0000 0000 0000 0000 0000 0000 0000 0000
00000070: 0000 0000 0000 0000 0000 0000 0000 0000
00000080: 0000 0000 0000 0000 0000 0000 0000 0000
00000090: 0000 0000 0000 0000 0000 0000 0000 0000
000000a0: 0000 0000 0000 0000 0000 0000 0000 0000
000000b0: 0000 0000 0000 0000 0000 0000 0000 0000
000000c0: 0000 0000 0000 0000 0000 0000 0000 0000
000000d0: 0000 0000 0000 0000 0000 0000 0000 0000
000000e0: 0000 0000 0000 0000 0000 0000 0000 0000
000000f0: 0000 0000 0000 0000 0000 0000 0000 0000
00000100: 0000 0000 0000 803f 0000 0000 0000 0000
00000110: 0000 0000 0000 0000 0000 0000 0000 0000
00000120: 0000 0000 0000 0000 0000 0000 0000 0000
00000130: 0000 0000 0000 0000 0000 0000 0000 0000
00000140: 0000 0000 0000 0000 0000 0000 0000 0000
00000150: 0000 0000 0000 0000 0000 0000 0000 0000
00000160: 0000 0000 0000 0000 0000 0000 0000 0000
00000170: 0000 0000 0000 0000 0000 0000 0000 0000
00000180: 0000 0000 0000 0000 0000 0000 0000 0000
00000190: 0000 0000 0000 0000 0000 0000 0000 0000
000001a0: 0000 0000 0000 0000 0000 0000 0000 0000
000001b0: 0000 0000 0000 0000 0000 0000 0000 0000
000001c0: 0000 0000 0000 0000 0000 0000 0000 0000
000001d0: 0000 0000 0000 0000 0000 0000 0000 0000
000001e0: 0000 0000 0000 0000 0000 0000 0000 0000
000001f0: 0000 0000 0000 0000 0000 0000 0000 0000
00000200: 0000 0000 0000 0000 0000 803f 0000 0000
00000210: 0000 0000 0000 0000 0000 0000 0000 0000
00000220: 0000 0000 0000 0000 0000 0000 0000 0000
00000230: 0000 0000 0000 0000 0000 0000 0000 0000
00000240: 0000 0000 0000 0000 0000 0000 0000 0000
00000250: 0000 0000 0000 0000 0000 0000 0000 0000
00000260: 0000 0000 0000 0000 0000 0000 0000 0000
00000270: 0000 0000 0000 0000 0000 0000 0000 0000
00000280: 0000 0000 0000 0000 0000 0000 0000 0000
00000290: 0000 0000 0000 0000 0000 0000 0000 0000
000002a0: 0000 0000 0000 0000 0000 0000 0000 0000
000002b0: 0000 0000 0000 0000 0000 0000 0000 0000
000002c0: 0000 0000 0000 0000 0000 0000 0000 0000
000002d0: 0000 0000 0000 0000 0000 0000 0000 0000
000002e0: 0000 0000 0000 0000 0000 0000 0000 0000
000002f0: 0000 0000 0000 0000 0000 0000 0000 0000
00000300: 0000 0000 0000 0000 0000 0000 0000 803f
00000310: 0000 0000 0000 0000 0000 0000 0000 0000
00000320: 0000 0000 0000 0000 0000 0000 0000 0000
00000330: 0000 0000 0000 0000 0000 0000 0000 0000
00000340: 0000 0000 0000 0000 0000 0000 0000 0000
00000350: 0000 0000 0000 0000 0000 0000 0000 0000
00000360: 0000 0000 0000 0000 0000 0000 0000 0000
00000370: 0000 0000 0000 0000 0000 0000 0000 0000
00000380: 0000 0000 0000 0000 0000 0000 0000 0000
00000390: 0000 0000 0000 0000 0000 0000 0000 0000
000003a0: 0000 0000 0000 0000 0000 0000 0000 0000
000003b0: 0000 0000 0000 0000 0000 0000 0000 0000
000003c0: 0000 0000 0000 0000 0000 0000 0000 0000
000003d0: 0000 0000 0000 0000 0000 0000 0000 0000
000003e0: 0000 0000 0000 0000 0000 0000 0000 0000
000003f0: 0000 0000 0000 0000 0000 0000 0000 0000

weight f4 [256, 64]
-0.4952087 0.65111524 -0.050759003 0.7342634 0.37692097 1.3998468 -0.0077944375 -1.9229214
-1.0045909 0.85622126 -0.6162006 -0.76883864 -1.5176711 0.8172308 0.75703275 -0.96952385
0.22355554 -0.28370887 -1.0806102 -0.015147802 0.15831271 -1.084573 -0.090077914 -2.3036246
0.23561639 -1.5107428 -0.50834394 1.0699888 0.106083125 -0.117266126 -0.48992747 -0.47510815
0.55182254 -0.74828947 0.48139778 -0.26516378 -0.019837486 0.30857152 0.13873969 1.5976537
-0.04598941 -1.1733351 0.6507274 0.5428485 1.372877 -0.2518462 -1.163756 -0.6245862
-0.5039794 0.6900187 0.7992916 0.004433067 -0.7929341 0.028154923 0.8662374 1.0474492
0.7233862 1.5815226 -0.06987312 0.56425565 -0.7030226 0.40930304 0.70010316 1.0666817
0.15035667 0.41803405 -0.5720869 1.6824545 0.008036579 -1.9786246 0.53616726 1.3092842
1.08307 -0.021891847 -1.0287262 -2.0394983 0.799167 -1.3104227 1.4847503 -1.421765
0.90239364 2.3779864 0.90464276 -1.1108961 0.108602725 -0.867531 2.3463862 -0.00912681
1.4878769 0.90229726 0.2827131 -0.3493146 0.29342943 -0.3943203 -0.33418536 0.55718726
-0.88789093 -0.7434085 0.5919446 0.825389 1.2077835 -0.25775647 0.51358443 0.33025637
-0.8840354 0.31430015 0.6112993 1.6774572 0.52222073 0.110827774 -0.17629544 -1.2508845
0.39211643 0.2194196 -0.2896343 0.7585356 0.26511422 -0.95575356 0.82813406 0.2214457
1.8428304 -0.7256098 0.5527396 1.1903131 -0.55775535 1.8215961 -0.14438432 0.35292998
1.2268671 -1.2070746 -0.43159813 -1.2762688 0.410946 -0.84287214 0.21884051 -1.7380968
1.2151499 -0.036960017 1.3894719 -0.5936391 -0.8025237 -1.3835244 0.07543937 1.3247727
1.4905597 0.11981674 -0.82594174 1.9762634 0.379196 -0.8532471 -0.034856573 -0.589365
-0.25451115 1.6994716 -0.2281427 -0.5689433 -0.2801694 1.2524142 -1.7060223 0.2775819
0.55386657 -0.5441824 1.3437252 -0.29214278 1.1525162 1.2802198 -0.014311807 -1.5965294
-2.062691 -0.07991305 -0.5068692 0.79202306 1.3731835 0.83305645 -3.2426453 0.81888545
-0.45097762 -0.76843494 1.1855687 0.08141004 1.6483872 -0.45379832 -0.2865056 0.72536796
0.65563005 1.5568199 -0.6123332 0.36957258 -0.32806176 0.013226194 -0.50941926 -0.36526063
-0.23038296 -0.23657413 0.67233825 0.5875475 1.0186594 -0.61924046 -0.34378642 -0.4606151
-0.7263551 0.18844205 -1.0296919 -0.65993524 -0.8740542 0.0461232 0.5823127 -1.0662214
-0.44449052 0.42067793 1.1560292 -1.8338035 -1.1023929 -0.46872735 0.5357233 -1.6716871
0.66454506 1.529721 -0.48883852 0.17206621 0.13842644 -0.44518217 -0.59532326 -0.35776338
0.8325331 -0.12143487 0.79240173 0.5410863 -0.25376335 0.35065788 -0.3946869 -0.013128989
-0.10879181 0.7185132 -1.1247416 -0.33643445 0.35549372 -0.73692966 -0.2675699 -0.5034983
-0.24986732 -0.22445932 0.49889973 0.9114321 -1.3630191 -0.2500857 1.1702988 -0.34153843
1.8980197 -1.2638571 -2.021903 -0.8921714 -0.22552478 -0.26758063 0.90120184 -1.114342
00000000: ff8b fdbe 7daf 263f ace8 4fbd b0f8 3b3f
00000010: c9fb c03e 2e2e b33f 7b68 ffbb 4a22 f6bf
00000020: 6f96 80bf 5131 5b3f 53bf 1dbf 9cd2 44bf
00000030: 0c43 c2bf 0a36 513f e6cc 413f b732 78bf
00000040: beeb 643e 4a42 91be 6f51 8abf 7d2e 78bc
00000050: ba1c 223e 4ad3 8abf c57a b8bd 966e 13c0
00000060: 6c45 713e 0560 c1bf d422 02bf 65f5 883f
00000070: 1c42 d93d 3929 f0bd c6d7 fabe 6041 f3be
00000080: 3e44 0d3f e68f 3fbf c579 f63e 8cc3 87be
00000090: 3982 a2bc 16fd 9d3e c711 0e3e eb7f cc3f
000000a0: 645f 3cbd d82f 96bf 1296 263f 1ff8 0a3f
000000b0: 6fba af3f fcf1 80be f5f5 94bf e2e4 1fbf
000000c0: cb04 01bf 11a5 303f 609e 4c3f 4343 913b
000000d0: bbfd 4abf 27a5 e63c bcc1 5d3f d112 863f
000000e0: d72f 393f 556f ca3f a319 8fbd 0f73 103f
000000f0: 4af9 33bf 2b90 d13e f639 333f 0789 883f
00000100: 19f7 193e 8f08 d63e 4974 12bf ab5a d73f
00000110: dbab 033c 9243 fdbf 4242 093f a096 a73f
00000120: 0aa2 8a3f 8856 b3bc 4dad 83bf 2487 02c0
00000130: 3596 4c3f eebb a7bf 4c0c be3f 65fc b5bf
00000140: 4503 673f ee30 1840 ab96 673f d831 8ebf
00000150: 1b6b de3d 8316 5ebf 312b 1640 9e88 15bc
00000160: c072 be3f f4fc 663f c5bf 903e 5dd9 b2be
00000170: 623c 963e 5ae4 c9be 581a abbe d3a3 0e3f
00000180: d24c 63bf 0550 3ebf ae89 173f b24c 533f
00000190: a698 9a3f a8f8 83be 457a 033f 5d17 a93e
000001a0: 2550 62bf f3eb a03e 1c7e 1c3f ebb6 d63f
000001b0: 42b0 053f acf9 e23d cb86 34be fc1c a0bf
000001c0: 7cc3 c83e 88af 603e f24a 94be 642f 423f
000001d0: 0dbd 873e 44ac 74bf 9800 543f a9c2 623e
000001e0: dee1 eb3f 90c1 39bf 5880 0d3f 2e5c 983f
000001f0: 0ec9 0ebf 102a e93f 7cd9 13be 3db3 b43e
00000200: fb09 9d3f 6c81 9abf 6efa dcbe c75c a3bf
00000210: 8467 d23e 78c6 57bf ba17 603e f579 debf
00000220: 088a 9b3f 6363 17bd 37da b13f bbf8 17bf
00000230: 3172 4dbf 5417 b1bf f57f 9a3d 2792 a93f
00000240: a9ca be3f 7b62 f53d eb70 53bf 33f6 fc3f
00000250: fa25 c23e 676e 5abf c4c5 0ebd a0e0 16bf
00000260: 494f 82be 4988 d93f 3d9e 69be 45a6 11bf
00000270: 5d72 8fbe 1c4f a03f f05e dabf 371f 8e3e
00000280: 33ca 0d3f 8a4f 0bbf 30ff ab3f bd93 95be
00000290: a785 933f 3ede a33f 127c 6abc 135b ccbf
000002a0: 2103 04c0 74a9 a3bd 2ec2 01bf 06c2 4a3f
000002b0: 7ac4 af3f 3043 553f 8087 4fc0 7aa2 513f
000002c0: 8ae6 e6be 27b8 44bf b7c0 973f 4fba a63d
000002d0: 5afe d23f 4158 e8be ddb0 92be b7b1 393f
000002e0: 5fd7 273f e045 c73f dec1 1cbf 9e38 bd3e
000002f0: b6f7 a7be aeb2 583c 4d69 02bf 7103 bbbe
00000300: 83e9 6bbe 7d40 72be 5c1e 2c3f 8369 163f
00000310: 6e63 823f 8b86 1ebf c604 b0be bed5 ebbe
00000320: 68f2 39bf f4f6 403e f2cc 83bf 84f1 28bf
00000330: 04c2 5fbf aeeb 3c3d 7212 153f f179 88bf
00000340: 4394 e3be 1963 d73e c4f8 933f 13ba eabf
00000350: 361b 8dbf 08fd efbe 2a25 093f d8f9 d5bf
00000360: a01f 2a3f e6cd c33f 0b49 fabe 2032 303e
00000370: a9bf 0d3e ebee e3be 1b67 18bf c32c b7be
00000380: e420 553f d8b2 f8bd d7da 4a3f a284 0a3f
00000390: 45ed 81be 6e89 b33e 6714 cabe f91a 57bc
000003a0: 3ece debd 7bf0 373f 88f7 8fbf 2341 acbe
000003b0: 4603 b63e 6ca7 3cbf ecfe 88be 44e5 00bf
000003c0: 38dd 7fbe aad8 65be c96f ff3e 9d53 693f
000003d0: 6977 aebf 3c0b 80be 5acc 953f 20de aebe
000003e0: 4ff2 f23f 12c6 a1bf dc66 01c0 5865 64bf
000003f0: f8ef 66be 5400 89be 2ab5 663f c2a2 8ebf

weight f4 [256, 64]
0.30226517 -1.3671074 -0.38309473 0.79756904 0.10307033 0.6971665 -0.27083668 -0.09622413
0.9764301 0.47405958 -0.6719198 0.07003352 -0.6106353 -1.0702511 0.8114156 -0.7396432
0.14090267 -0.5894848 0.755863 0.10628549 -0.25301966 0.9039806 -0.31322232 0.32539228
0.44565043 1.2157246 -0.0032206324 1.0179439 0.54630613 0.4263167 -0.08459461 -1.021083
1.4250984 0.38213786 0.24069919 -0.43820953 0.0034514528 -0.50160146 -1.0320182 -0.19390556
0.020805469 -2.011651 0.7844039 -0.6413328 -1.3708658 -1.257267 1.5362947 -0.07062921
0.11874965 0.06841817 -1.4883122 0.23396136 -0.5216494 -1.0290751 -2.0168457 -1.4261792
-1.503266 -0.036885448 -0.01438336 -0.8488317 2.9563477 -0.40450427 0.4786436 1.7574353
1.4782761 -0.66234225 1.13991 1.3049387 0.89363366 0.3971629 1.4263618 -0.77564996
-1.0109122 0.66713804 -2.5165079 1.6983771 0.76851666 -0.23331752 0.9502923 0.12192575
-0.003703358 -0.69780916 1.3584149 -0.97480184 -3.0332224 0.11624076 -1.0705165 -1.2554717
-1.436383 0.14740562 -1.0384686 0.22882538 -0.6865299 1.4162866 -0.47880268 -0.096770085
-0.72358096 -2.0721805 -1.4748017 0.74419785 0.58127725 -0.3686483 -0.8325312 -0.2442539
-0.63313574 -0.28719616 -2.2362058 0.13095814 -0.10527206 0.7320588 1.1848593 0.25423208
-0.8342804 1.5300561 -0.11411546 0.74684894 -0.3823815 -0.64520687 0.5462826 -0.1171154
-0.1853214 -1.8784186 0.5988188 -0.19694276 -0.19908407 1.3472477 -2.3386269 -0.45163167
0.5676138 -1.4248261 -1.0020729 -0.9662983 1.540472 -0.9668966 -0.69098026 -1.6357318
1.1675559 0.45724058 -0.89642996 -0.5065429 1.478525 -1.341564 0.8913737 0.24677272
-0.5291942 0.90040433 -0.6691922 -1.4407785 0.5210949 1.1090938 0.8619088 -0.6957254
-1.3349861 0.2923963 0.17819853 -1.349268 0.99869514 -0.7378185 0.45492488 1.7711612
-1.226393 1.462156 -0.37783882 -0.43432745 0.7630912 -0.7581876 -0.053984523 -1.7652427
-0.99254376 1.2495214 -0.39623782 0.7826738 -1.5782956 -1.7154237 0.9641751 -0.081495255
-0.35225475 -0.49827686 0.3567405 -0.3633132 0.32311016 1.6111411 0.6186881 1.4387826
-1.4958645 1.8642644 -1.077297 -1.2003267 0.2652519 -0.7683008 -0.85155237 0.1903681
0.45657697 -0.27247828 0.16111279 0.107802086 -0.56846696 -0.16034125 -0.6624142 -1.493801
1.644747 0.5224987 0.32989943 0.07467837 -1.7558087 0.51948893 0.12562749 -1.6545715
-0.7341413 -1.2148973 -0.4411929 1.5278732 -0.1389481 1.7205367 -0.92489755 -0.031484086
-0.43287328 0.655199 -0.037815705 0.26789176 1.567905 -0.94238895 1.3734113 -0.8748468
-0.07875358 0.018638413 0.4322297 0.5790197 -1.2408919 0.07225022 -1.1284779 -0.0060908105
-1.3136439 0.17225689 0.82041156 -0.872969 0.5731335 0.42218208 -1.380947 0.48873684
0.15369463 -0.5391781 -1.1594911 -0.68277055 -0.34803426 0.14384969 1.6266453 0.36915904
-0.16819748 -0.4949403 -0.16560605 -0.535848 -0.9073693 1.4345632 1.1390518 0.28133702
00000000: 80c2 9a3e 60fd aebf fe24 c4be 7c2d 4c3f
00000010: 8a16 d33d 8179 323f 1bab 8abe 2811 c5bd
00000020: 53f7 793f f0b7 f23e f002 2cbf bc6d 8f3d
00000030: 9852 1cbf fdfd 88bf efb8 4f3f 4259 3dbf
00000040: ca48 103e 7ae8 16bf 3d80 413f 35ac d93d
00000050: cb8b 81be 466b 673f ad5e a0be d199 a63e
00000060: 4b2c e43e dd9c 9b3f 3f11 53bb fc4b 823f
00000070: b8da 0b3f 2f46 da3e f03f adbd d9b2 82bf
00000080: a069 b63f 93a7 c33e d979 763e 005d e0be
00000090: c531 623b f468 00bf 2c19 84bf 2e8f 46be
000000a0: 3b70 aa3c e4be 00c0 b2ce 483f 632e 24bf
000000b0: 8878 afbf 20ee a0bf 4ea5 c43f 0ca6 90bd
000000c0: 0433 f33d d31e 8c3d 0481 bebf 9193 6f3e
000000d0: d18a 05bf bcb8 83bf 0014 01c0 0a8d b6bf
000000e0: 056b c0bf 3215 17bd 2fa8 6bbc 094d 59bf
000000f0: cd34 3d40 2f1b cfbe c610 f53e a4f3 e03f
00000100: 2738 bd3f 438f 29bf 92e8 913f 3b08 a73f
00000110: 2dc5 643f f058 cb3e 0693 b63f ff90 46bf
00000120: 9265 81bf 8fc9 2a3f 770e 21c0 6c64 d93f
00000130: 82bd 443f caea 6ebe 5b46 733f 35b4 f93d
00000140: 09b4 72bb 9fa3 32bf 8ae0 ad3f 9d8c 79bf
00000150: 5120 42c0 a30f ee3d af06 89bf 4cb3 a0bf
00000160: 66db b7bf 80f1 163e 8aec 84bf 3351 6a3e
00000170: 6cc0 2fbf e148 b53f a025 f5be 652f c6bd
00000180: 9a3c 39bf 9b9e 04c0 4dc6 bcbf c083 3e3f
00000190: 96ce 143f 78bf bcbe c420 55bf b21d 7abe
000001a0: 2f15 22bf 600b 93be ff1d 0fc0 e419 063e
000001b0: e198 d7bd 3568 3b3f 78a9 973f b52a 823e
000001c0: 6693 55bf e1d8 c33f 5eb5 e9bd 7e31 3f3f
000001d0: 82c7 c3be 472c 25bf 2dd9 0b3f 33da efbd
000001e0: e5c4 3dbe 0570 f0bf 304c 193f 5dab 49be
000001f0: b2dc 4bbe 9d72 ac3f 10ac 15c0 443c e7be
00000200: 234f 113f b460 b6bf ed43 80bf 535f 77bf
00000210: 302e c53f 8986 77bf 15e4 30bf a95f d1bf
00000220: 7972 953f 701b ea3e 6f7c 65bf ccac 01bf
00000230: 4f40 bd3f 5fb8 abbf 1131 643f fdb1 7c3e
00000240: 4579 07bf e680 663f 2e50 2bbf 6e6b b8bf
00000250: 7a66 053f c9f6 8d3f 0ea6 5c3f 0f1b 32bf
00000260: d3e0 aabf f8b4 953e ad79 363e d0b4 acbf
00000270: 7caa 7f3f ace1 3cbf eaeb e83e 69b5 e23f
00000280: 72fa 9cbf ee27 bb3f 1774 c1be 2b60 debe
00000290: f259 433f 9518 42bf e01e 5dbd 79f3 e1bf
000002a0: 5917 7ebf 51f0 9f3f afdf cabe 4f5d 483f
000002b0: 9705 cabf 0193 dbbf 2ed4 763f fce6 a6bd
000002c0: bc5a b4be 251e ffbe b1a6 b63e 3004 babe
000002d0: b26e a53e df39 ce3f 5862 1e3f 072a b83f
000002e0: 7d78 bfbf 37a0 ee3f dee4 89bf 4ea4 99bf
000002f0: 19cf 873e 5caf 44bf 56ff 59bf dbef 423e
00000300: 75c4 e93e 4682 8bbe c0fa 243e 57c7 dc3d
00000310: 0d87 11bf 7f30 24be fa93 29bf df34 bfbf
00000320: 1287 d23f 7ac2 053f 94e8 a83e f9f0 983d
00000330: 57be e0bf 3afd 043f 7ea4 003e 00c9 d3bf
00000340: aff0 3bbf c181 9bbf 09e4 e1be 5991 c33f
00000350: 6948 0ebe 8c3a dc3f 16c6 6cbf 75f5 00bd
00000360: 91a1 ddbe 1fbb 273f a4e4 1abd 1c29 893e
00000370: 1cb1 c83f 6740 71bf f1cb af3f f6f5 5fbf
00000380: 8f49 a1bd 96af 983c 364d dd3e a33a 143f
00000390: 8cd5 9ebf ecf7 933d f771 90bf 6c95 c7bb
000003a0: 7c25 a8bf 1c64 303e 7e06 523f e57a 5fbf
000003b0: e1b8 123f 4028 d83e dfc2 b0bf b73b fa3e
000003c0: 2062 1d3e 9307 0abf 346a 94bf 0dca 2ebf
000003d0: 8c31 b2be 554d 133e ea35 d03f 6a02 bd3e
000003e0: f63b 2cbe d168 fdbe a294 29be 562d 09bf
000003f0: 5b49 68bf c49f b73f 73cc 913f 680b 903e

weight f4 [64, 128]
-0.42557365 0.27368996 -0.14400813 0.13903902 0.19772017 0.08845295 0.16135073 -0.1548793
-0.010742607 -0.058958422 -0.054182436 -0.35931045 0.490157 -0.1740203 -0.23130728 0.29971772
-0.4023284 0.013217165 -0.2675586 0.40088892 0.031548906 -0.28636542 0.36438027 0.04945664
0.2762028 0.26282462 0.21886455 -0.13162903 -0.0669192 0.06193518 -0.0886675 -0.034616042
0.016937846 -0.55835027 -0.28340334 0.011533076 -0.16689917 0.3076644 0.3591037 0.34842458
0.27732423 0.14471382 -0.05778382 -0.10894053 -0.12771967 0.1668725 -0.36654818 -0.27685878
0.067607306 0.016646463 -0.26266953 -0.15293929 -0.27900788 0.29813847 0.08073169 -0.19804388
-0.30878288 0.030979544 -0.30569386 -0.20846541 0.15939003 0.0146419015 -0.07853159 -0.20565529
-1.5692308 -1.1219288 -0.13599087 -0.37984282 -1.625645 0.30223528 -0.8055451 -0.95002127
-0.22654752 0.24975444 0.86694443 1.0622059 -0.7946357 -0.3193081 0.60144335 -0.5492988
0.43434817 0.01992339 1.1409264 -0.084054746 -0.4397042 -0.7749199 -0.3627717 1.3720046
-0.06823392 -1.0726185 0.46915045 0.06054144 0.7039914 -0.4056297 -0.033882536 0.8934902
-0.88491243 -0.4017122 0.72543985 0.93605036 1.3593992 0.85669786 0.19175747 -0.3754415
-0.32193866 0.3136393 -0.34235063 0.13074069 0.39732572 -0.30067602 -0.58425343 0.058620077
0.47823358 -0.05628935 0.042531986 -0.25011665 -0.12590288 1.2617319 0.7807507 0.40595618
0.45777223 -1.390975 1.1862757 0.4293077 0.73848236 -0.0042789723 1.0830784 1.3070574
0.14112982 0.25045803 -0.38322315 0.020285552 0.44051474 -0.15669829 -0.06389384 0.25149557
0.6082824 -0.032370538 -0.1993327 0.73964256 -0.6469565 0.13755436 -0.08468829 0.37908238
0.14198908 0.7418867 -0.27870044 -0.15437546 -0.035628024 -0.36473483 -0.62862635 0.060444828
0.14904524 0.27811942 -0.41587925 -0.20911463 -0.23884918 -0.02537442 0.10331584 0.25540686
0.17287976 0.21177936 0.056169517 -0.7426695 -0.45358834 0.23739995 -0.1922374 0.77755326
-0.16221367 0.31706488 0.43309495 -0.21224448 -0.36548176 0.4315921 0.2708907 0.046791393
0.2983129 0.005678996 0.5823842 -0.087682106 0.06557051 0.23642108 -0.19417918 0.11920445
0.079006374 -0.43967846 -0.4888225 0.420528 -0.0050360016 -0.26819682 0.3738129 0.2511702
2.6703358 1.5860742 1.2796904 -2.5455213 1.0881903 0.47443026 0.56403446 -0.09164991
0.9842243 -2.4995391 -0.0014073473 -1.2842685 1.1905307 1.0210298 -1.6222703 0.14641926
0.49308085 -1.1197579 -2.245038 0.9339036 1.265673 0.49374673 0.59608644 -0.4529995
0.9503811 1.2591876 -0.8776385 0.75068223 -0.7137267 -0.39832914 -0.33720526 -2.3859715
1.2921772 1.0243026 0.56165445 -0.45270526 -0.12999134 -1.361144 0.51957846 0.72512895
0.19854106 0.63116 0.3766424 1.3221785 1.5500828 -1.6841094 0.5127182 0.8822675
-0.088294044 0.5487585 0.27170682 0.2907789 0.21180247 -0.53234386 0.58162403 0.53359103
0.6925928 -0.59310997 -0.27524862 0.15160432 0.40770933 0.08845429 -1.1292824 0.49780253
00000000: cae4 d9be 1721 8c3e de76 13be 3f60 0e3e
00000010: 2877 4a3e d226 b53d 2039 253e ae98 1ebe
00000020: c201 30bc 637e 71bd 67ee 5dbd 8af7 b7be
00000030: dcf5 fa3e 6132 32be d1db 6cbe 9a74 993e
00000040: fdfd cdbe cf8c 583c 71fd 88be 5041 cd3e
00000050: 6d39 013d 7d9e 92be 0d90 ba3e 0c93 4a3d
00000060: 746a 8d3e f390 863e 071e 603e c3c9 06be
00000070: ef0c 89bd beaf 7d3d 4e97 b5bd 8dc9 0dbd
00000080: 3dc1 8a3c 0bf0 0ebf 3e1a 91be 3af5 3c3c
00000090: 9ee7 2abe 3086 9d3e 71dc b73e b564 b23e
000000a0: 71fd 8d3e dc2f 143e baae 6cbd 361c dfbd
000000b0: f2c8 02be a0e0 2a3e 34ac bbbe 6fc0 8dbe
000000c0: b375 8a3d 2a5e 883c 9f7c 86be 1e9c 1cbe
000000d0: 1fda 8ebe 9ba5 983e a856 a53d 04cc 4abe
000000e0: ca18 9ebe d0c8 fd3c e883 9cbe f577 55be
000000f0: 2437 233e 96e4 6f3c 2cd5 a0bd 4d97 52be
00000100: 8edc c8bf 5d9b 8fbf 3141 0bbe c27a c2be
00000110: 2315 d0bf 95be 9a3e 3438 4ebf 9834 73bf
00000120: 13fc 67be a1bf 7f3e 12f0 5d3f 5df6 873f
00000130: 3f6d 4bbf 5a7c a3be 31f8 193f d99e 0cbf
00000140: e262 de3e 6136 a33c e009 923f e524 acbd
00000150: e920 e1be 2761 46bf 36bd b9be d99d af3f
00000160: 3abe 8bbd 904b 89bf 7d34 f03e 4dfa 773d
00000170: c838 343f b2ae cfbe 6ac8 0abd c6bb 643f
00000180: 9f89 62bf 39ad cdbe 6db6 393f ffa0 6f3f
00000190: cb00 ae3f 8d50 5b3f 125c 443e de39 c0be
000001a0: 25d5 a4be 5595 a03e 9548 afbe e3e0 053e
000001b0: 476e cb3e 35f2 99be a291 15bf 9b1b 703d
000001c0: 08db f43e a98f 66bd 0536 2e3d 4a0f 80be
000001d0: afec 00be 6e80 a13f 47df 473f 7dd9 cf3e
000001e0: 1f61 ea3e 780b b2bf e2d7 973f 38ce db3e
000001f0: 2e0d 3d3f 9f36 8cbb 50a2 8a3f a84d a73f
00000200: 5684 103e 093c 803e d335 c4be e32d a63c
00000210: 268b e13e 8475 20be c6da 82bd 07c4 803e
00000220: 65b8 1b3f f896 04bd df1d 4cbe 3759 3d3f
00000230: f19e 25bf 0ddb 0c3e 0e71 adbd 1617 c23e
00000240: 9665 113e 49ec 3d3f d3b1 8ebe 9a14 1ebe
00000250: b1ee 11bd 86be babe a8ed 20bf ff94 773d
00000260: 519f 183e ab65 8e3e 20ee d4be 2522 56be
00000270: e194 74be 04de cfbc 4197 d33d b0c4 823e
00000280: 6407 313e b0dc 583e 0212 663d 971f 3ebf
00000290: bb3c e8be f918 733e e2d9 44be bb0d 473f
000002a0: 571b 26be 5456 a23e 9fbe dd3e 9e56 59be
000002b0: 6d20 bbbe a4f9 dc3e 30b2 8a3e 55a8 3f3d
000002c0: 78bc 983e df16 ba3b 2217 153f ad92 b3bd
000002d0: d549 863d 5e18 723e e8d6 46be 7621 f43d
000002e0: 18ce a13d 891d e1be f146 fabe 724f d73e
000002f0: 0b05 a5bb 1851 89be 6864 bf3e 6199 803e
00000300: c8e6 2a40 7b04 cb3f e5cc a33f d2e9 22c0
00000310: d249 8b3f 86e8 f23e 9064 103f f3b2 bbbd
00000320: 20f6 7b3f 73f8 1fc0 bd76 b8ba e962 a4bf
00000330: 4f63 983f 1bb1 823f 8ea6 cfbf eeee 153e
00000340: 1875 fc3e 3a54 8fbf b4ae 0fc0 4e14 6f3f
00000350: 9301 a23f 5fcc fc3e 1f99 183f 8def e7be
00000360: 2d4c 733f 0f2d a13f ebac 60bf b62c 403f
00000370: cbb6 36bf ccf1 cbbe 2ba6 acbe c2b3 18c0
00000380: 1066 a53f 591c 833f 96c8 0f3f fcc8 e7be
00000390: 731c 05be f739 aebf 1803 053f 0da2 393f
000003a0: 594e 4b3e b493 213f 46d7 c03e 253d a93f
000003b0: 1d69 c63f e690 d7bf 8041 033f 48dc 613f
000003c0: 82d3 b4bd 707b 0c3f 281d 8b3e f9e0 943e
000003d0: bfe2 583e b047 08bf 50e5 143f 6c99 083f
000003e0: c34d 313f 0ed6 17bf 63ed 8cbe 2a3e 1b3e
000003f0: 47bf d03e 8627 b53d 538c 90bf f9df fe3e

bias f4 [64]
-0.25783762 0.06444796 -0.020875916 -0.17123154 0.06915727 -0.3604371 -0.0098028835 -0.32877302
-0.41763905 -0.3089777 0.006551111 -0.25081187 -0.12344763 -0.06456965 -0.18603998 0.13242768
0.1658348 0.057562195 0.12702087 0.3246936 -0.122181 0.24573879 -0.1273626 -0.562113
-0.30933565 -0.17699897 -0.25334463 -0.20845672 -0.09936411 -0.28046614 -0.2674152 0.15586582
-0.008568379 -0.1128608 0.043290418 -0.3726014 0.040352404 -0.0010801634 -0.63950133 -0.20800936
0.02469363 -0.031227943 -0.09290201 -0.45322284 -0.13766238 -0.20537499 -0.45829993 -0.07284363
-0.2155835 0.14023852 0.020744763 -0.0144682685 -0.37947986 0.09715236 0.36489338 0.018886475
-0.0013669492 -0.3087796 -0.15108885 -0.6299973 -0.22635016 -0.49029842 -0.09168215 -0.57712966
00000000: 4b03 84be 4bfd 833d f803 abbc 5257 2fbe
00000010: 54a2 8d3d 368b b8be 469c 20bc f054 a8be
00000020: c9d4 d5be 5332 9ebe b4aa d63b 6a6a 80be
00000030: 1cd2 fcbd 183d 84bd 4481 3ebe 1f9b 073e
00000040: 99d0 293e 56c6 6b3d c211 023e 3d3e a63e
00000050: 083a fabd f3a2 7b3e 576b 02be a3e6 0fbf
00000060: 3e61 9ebe 383f 35be 63b6 81be ae75 55be
00000070: 697f cbbd 4299 8fbe a5ea 88be 4a9b 1f3e
00000080: 6362 0cbc 9023 e7bd 4b51 313d 9cc5 bebe
00000090: 9048 253d 4594 8dba 5cb6 23bf 6800 55be
000000a0: 4c4a ca3c bed1 ffbc 6943 bebd d30c e8be
000000b0: 5ef7 0cbe d24d 52be 4aa6 eabe 0b2f 95bd
000000c0: ecc1 5cbe b09a 0f3e ecf0 a93c 510c 6dbc
000000d0: 2f4b c2be d1f7 c63d 4ed3 ba3e cfb7 9a3c
000000e0: 342b b3ba 5c18 9ebe 09b7 1abe 8147 21bf
000000f0: 56c8 67be 6508 fbbe dac3 bbbd c5be 13bf

weight f4 [32, 64]
-0.03622773 -0.0004705895 0.09865219 0.10285159 0.07111929 0.07352786 -0.056120157 -0.05596315
0.032161377 -0.0299531 -0.09435527 0.09654396 0.0104821585 -0.0043947985 0.052682847 -0.1144642
0.018370511 0.06836225 -0.1291219 0.05168441 -0.06341311 0.08456812 -0.08495938 -0.06497383
-0.08469651 -0.0064317244 0.046794556 -0.053166114 0.078816496 0.014426508 0.01644265 -0.13555618
0.025489252 0.071213804 -0.03740969 -0.06256998 0.034580406 -0.09191397 0.045343548 0.07227055
-0.09078689 -0.10852645 0.011245084 -0.08777342 -0.102410704 -0.0076415916 -0.036936957 -0.056834646
0.08315102 0.005996603 -0.13842806 0.097676426 0.02013157 0.026429148 -0.0788164 0.032730274
-0.1314528 -0.01169649 -0.0025677069 -0.07463401 -0.05562337 -0.03237541 -0.05419568 -0.09430522
-0.09834039 -0.09874146 -0.120376155 -0.029561922 -0.014887109 -0.055657893 0.010965422 -0.055580422
0.026311487 0.043212786 0.092501864 -0.115499586 -0.08763413 -0.055777833 0.111280754 0.085284576
0.057956457 0.025691405 -0.06314093 0.07414353 -0.048521966 -0.067636356 -0.08170268 0.061500296
-0.028335854 0.061770603 0.09201835 -0.0072435737 0.10939172 -0.04923646 -0.055525735 -0.060782224
0.08270845 -0.10331692 -0.068183154 -0.10706629 7.355213e-05 0.0042883605 0.061207652 -0.0992993
-0.08609182 0.018213809 -0.07959747 0.059072062 0.05110827 0.06610499 -0.108743295 0.052567974
-0.07081841 0.068608105 0.01852636 0.029920936 -0.08782853 0.050234094 -0.09207694 -0.055410773
0.0053582788 0.0465578 -0.08912219 0.03919138 -0.013433695 0.012401313 0.025259465 -0.044452548
-0.30839336 -0.027138995 0.06151104 0.046469998 -0.067396455 -0.38682413 -0.259757 -0.00912247
-0.6205752 0.09215979 -0.51045555 -0.0047204904 0.746837 0.037070625 -0.21532626 -0.14554937
-0.032814626 -0.27606016 -0.11376817 -0.045596305 -0.028284298 0.041689944 -0.067426525 -0.52604276
0.23088065 -0.65981543 -0.38775966 0.16434959 -0.2575193 0.15508263 0.1960742 -0.05079667
0.7282578 -0.33238706 -0.37832198 0.052945193 0.03577969 -0.32086763 0.20360877 0.6117596
-0.77485406 -0.23869425 -0.45254636 -0.32199788 0.39124247 0.7773419 -0.819967 -0.27168387
0.017306218 -0.6723066 0.07041024 -0.08019867 -0.51069844 0.02358748 0.13024642 0.1595533
-0.3711159 -0.8575361 -0.57132244 -0.42949975 0.12574165 -0.1881249 0.14946006 -0.23697823
0.33291492 0.32879183 -0.27243054 0.32975987 -0.07276635 0.15563343 -0.07410367 -0.11488467
0.3042414 0.10171155 0.5736397 -0.0890087 -0.018705988 0.022447785 -0.1817579 0.1890846
-0.009494319 -0.19234034 0.09068914 -0.07882342 -7.358868e-05 -0.12706514 0.037787113 0.1122826
0.030228522 0.24430682 0.4232308 -0.13573381 -0.11345599 0.21807586 -0.02712405 0.09293714
0.1833518 -0.13893057 0.09502433 0.27342933 -0.22530125 0.4357371 -0.07724144 -0.8346265
0.37159148 -0.18293412 0.3208453 0.043131113 0.046747714 -0.1029231 0.2760047 0.031712007
0.18691891 -0.17010644 -0.1473847 0.053129803 0.3496814 0.020454243 -0.4050713 -0.16947967
0.13906135 0.4267722 0.23460503 0.12692782 0.4420226 0.1995985 0.0023976306 -0.13844338
00000000: 8763 14bd 74b9 f6b9 290a ca3d dba3 d23d
00000010: fea6 913d c695 963d 40de 65bd 9e39 65bd
00000020: a6bb 033d 3460 f5bc 563d c1bd d7b8 c53d
00000030: 5cbd 2b3c 3e02 90bb f8c9 573d 356c eabd
00000040: c17d 963c 8201 8c3d 8838 04be 08b3 533d
00000050: bcde 81bd 0d32 ad3d 2fff adbd 0011 85bd
00000060: 5d75 adbd 37c1 d2bb a6ab 3f3d b6c4 59bd
00000070: 8b6a a13d 295d 6c3c bdb2 863c 3dcf 0abe
00000080: d6ce d03c 8bd8 913d e73a 19bd b124 80bd
00000090: 2fa4 0d3d 643d bcbd 28ba 393d 9502 943d
000000a0: 7aee b9bd 1e43 debd 4d3d 383c 8dc2 b3bd
000000b0: b4bc d1bd 5166 fabb 354b 17bd 72cb 68bd
000000c0: 154b aa3d 277f c43b 16c0 0dbe 940a c83d
000000d0: f6ea a43c f181 d83c 7e6a a1bd 2e10 063d
000000e0: 909b 06be a3a2 3fbc f946 28bb b7d9 98bd
000000f0: 55d5 63bd 149c 04bd 4afc 5dbd 1823 c1bd
00000100: b066 c9bd f638 cabd c687 f6bd d82b f2bc
00000110: 10e9 73bc 88f9 63bd 50a8 333c 4ca8 63bd
00000120: 308b d73c e4ff 303d 9e71 bd3d 0c8b ecbd
00000130: 8679 b3bd 4c77 64bd 2ae7 e33d aea9 ae3d
00000140: c063 6d3d c876 d23c 0850 81bd 90d8 973d
00000150: f8be 46bd ee84 8abd bc53 a7bd bce7 7b3d
00000160: 9820 e8bc 2c03 7d3d 1e74 bc3d 805b edbb
00000170: c408 e03d 2cac 49bd f46e 63bd c8f6 78bd
00000180: 0c63 a93d d297 d3bd 9ca3 8bbd 9245 dbbd
00000190: 0040 9a38 6085 8c3b e0b4 7a3d 6e5d cbbd
000001a0: e850 b0bd 2035 953c 0004 a3bd 8cf5 713d
000001b0: e856 513d 0e62 873d ceb4 debd 8451 573d
000001c0: 3e09 91bd 6882 8c3d 98c4 973c c01c f53c
000001d0: 72df b3bd 44c2 4d3d d692 bcbd 68f6 62bd
000001e0: 8094 af3b 64b3 3e3d b285 b6bd 2487 203d
000001f0: 0019 5cbc e02e 4b3c f0ec ce3c e013 36bd
00000200: bce5 9dbe 9952 debc 00f3 7b3d 5357 3e3d
00000210: 2707 8abd d00d c6be dffe 84be 6a76 15bc
00000220: 04de 1ebf 46be bc3d 37ad 02bf 58ae 9abb
00000230: b630 3f3f 5ed7 173d 7d7e 5cbe e50a 15be
00000240: a168 06bd c257 8dbe 49ff e8bd 31c3 3abd
00000250: 79b4 e7bc 13c3 2a3d eb16 8abd bdaa 06bf
00000260: fa6b 6c3e aae9 28bf 6f88 c6be 424b 283e
00000270: 92d9 83be fbcd 1e3e adc7 483e 2b10 50bd
00000280: 1a6f 3a3f a32e aabe 6bb3 c1be 0fdd 583d
00000290: b98d 123d c348 a4be d17e 503e 479c 1c3f
000002a0: d65c 46bf 446c 74be 28b4 e7be e8dc a4be
000002b0: ef50 c83e e1ff 463f 5be9 51bf 261a 8bbe
000002c0: c5c5 8d3c 491c 2cbf 3e33 903d 333f a4bd
000002d0: 22bd 02bf 883a c13c 515f 053e f161 233e
000002e0: e702 bebe 7c87 5bbf 3042 12bf 64e7 dbbe
000002f0: 6bc2 003e d0a3 40be 0f0c 193e 6caa 72be
00000300: d373 aa3e 6757 a83e 047c 8bbe 49d6 a83e
00000310: 8606 95bd 5f5e 1f3e aac3 97bd a748 ebbd
00000320: 87c5 9b3e 254e d03d 0dda 123f 314a b6bd
00000330: 4d3d 99bc 6be4 b73c be1e 3abe 659f 413e
00000340: 0f8e 1bbc def4 44be 3abb b93d 2c6e a1bd
00000350: 9f53 9ab8 5d1d 02be a9c6 1a3d 6bf4 e53d
00000360: cea1 f73c 912b 7a3e b5b1 d83e cefd 0abe
00000370: 9d5b e8bd 474f 5f3e 4133 debc d455 be3d
00000380: 93c0 3b3e d143 0ebe 1e9c c23d eefe 8b3e
00000390: 5fb5 66be ef18 df3e c330 9ebd 15aa 55bf
000003a0: 3d41 be3e 1553 3bbe d645 a43e 40aa 303d
000003b0: 887a 3f3d 59c9 d2bd 7d50 8d3e 73e4 013d
000003c0: ac67 3f3e 6230 2ebe 04ec 16be a39e 593d
000003d0: 7109 b33e a88f a73c 8165 cfbe 148c 2dbe
000003e0: 1966 0e3e e381 da3e 4d3c 703e 5ef9 013e
000003f0: c950 e23e 8d63 4c3e 9121 1d3b 1ac4 0dbe

bias f4 [32]
-0.04259183 -0.108416796 0.41323486 -0.014423898 0.73608273 -0.0050886422 -0.15938331 -0.0007133174
0.6815505 0.70788884 0.3110405 0.57627636 0.7462359 -0.13651194 -0.015708104 -0.2634393
-0.016196791 -0.10114829 -0.07798494 0.23479418 0.3180299 -0.00068129756 -0.15745305 0.7272668
-0.036398448 -0.20032811 -0.069933735 -0.009134065 -0.22679716 -0.10209609 -0.013168537 -0.07450217
00000000: c574 2ebd a009 debd 8593 d33e 3752 6cbc
00000010: eb6f 3c3f a0be a6bb 6135 23be ecfd 3aba
00000020: 187a 2e3f 3438 353f b340 9f3e d986 133f
00000030: 5109 3f3f c9c9 0bbe 48ae 80bc 84e1 86be
00000040: 22af 84bc d626 cfbd 91b6 9fbd e36d 703e
00000050: d1d4 a23e 1b99 32ba 5f3b 21be 282e 3a3f
00000060: 8a16 15bd d022 4dbe 6b39 8fbd 0ca7 15bc
00000070: 843d 68be c117 d1bd d9c0 57bc 9894 98bd

weight f4 [1, 32]
0.006420637 0.023671545 -0.32745606 0.068303384 -0.12825955 -0.16776964 -0.79167956 0.06170561
-0.07133654 -0.1408189 -0.86754215 -0.33875158 -0.30451787 -0.09152259 0.16686125 0.61422795
0.010500072 0.012487197 0.08949378 1.9899236 -0.0017949981 0.07447445 0.20307635 -0.073945016
0.0118939895 -0.5360122 -0.48763928 0.033038683 0.20055063 0.102742925 0.07563184 -0.1491404
00000000: 3564 d23b d4ea c13c 52a8 a7be a5e2 8b3d
00000010: 7956 03be cecb 2bbe 83ab 4abf 06bf 7c3d
00000020: e418 92bd d432 10be 3e17 5ebf d970 adbe
00000030: c4e9 9bbe 3270 bbbd addd 2a3e 0b3e 1d3f
00000040: 7e08 2c3c 1a97 4c3c 8448 b73d d1b5 fe3f
00000050: 2446 ebba 0f86 983d 3ff3 4f3e 7c70 97bd
00000060: 02df 423c 1838 09bf dbab f9be 9253 073d
00000070: 255d 4d3e e26a d23d dee4 9a3d 43b8 18be

weight f4 [64, 64]
-0.6167094 0.95059466 0.035364278 0.5815399 0.52554536 0.1893177 0.34326002 0.4050021
0.66940916 -0.040830456 0.1414187 0.15561102 0.6426193 0.5440945 0.1868526 0.78681713
1.0433608 0.9650202 0.14749646 0.6635133 0.9956139 0.5933992 0.3536064 -0.09750599
0.33220917 0.21597753 -0.5333586 0.291587 0.17387632 0.32710636 -0.5171796 0.022630392
-0.44291946 0.60982525 0.017475959 -0.09867225 -0.08997345 0.19936055 -0.069303915 -0.4120094
-0.44839785 -0.0014919322 -0.24241748 -0.20339555 0.353012 0.07329485 -0.000979297 -0.509693
-0.032599166 -0.24321677 -0.38455388 -0.2818563 0.15461041 0.113804415 -0.34749317 -0.25324467
-0.048537433 -0.23578891 -0.029534448 -0.29019216 0.22299094 0.19486462 -0.39268807 -0.017056458
1.5162904 0.41327935 0.47001648 0.597602 -0.1393986 -0.36280444 0.093427554 -0.02412156
-0.039906304 0.933344 0.28438064 1.4152898 0.6265851 0.36270365 0.24732417 0.27083123
-0.049350377 0.32935944 0.1279019 0.23966399 0.030017454 0.26029593 0.39511618 0.33159268
-0.1274702 0.2745313 -0.053173363 0.0144166965 0.69958484 -0.052755818 -0.6806374 0.9836399
-0.34914133 -0.29422107 -0.16296345 -0.23974885 -0.024620969 -0.53171855 -0.16278854 -0.54398715
-0.6025355 -0.13127472 -0.22617154 -0.29097012 -0.3886605 0.85984415 -0.10921571 -0.51027566
0.040340852 -0.79745656 -0.6731077 -0.7071413 -0.56347626 -0.18927787 -0.80072266 -0.964628
0.069229715 1.1040894 -0.66805565 -0.5885646 -0.7079471 -0.699047 0.059384078 -1.282513
-0.030492308 -0.066564515 -0.47868228 0.16780446 0.39065242 -0.47581697 0.07835359 0.18376084
-0.5647573 -0.74330187 1.0632412 -0.63251394 -0.19486089 0.45128044 -0.5550645 0.276738
0.47519228 1.099067 -0.9090796 0.23553899 -0.34281576 -0.11658099 -0.2606184 0.40316847
-0.21609992 0.19129804 -0.7343937 0.1814471 0.47740588 -0.19378974 -0.83293116 0.5804775
-0.5630519 0.0611458 0.77511257 -0.64838654 0.553052 -0.07681654 0.69530857 -0.29256916
-0.14473122 0.23849833 -0.17104882 -0.010883796 -0.0657057 -0.15124369 0.21639578 -0.017622126
0.19458398 0.042002667 -0.33049735 -0.24457857 0.14736061 0.032387804 -0.31239855 0.423334
0.19448218 -0.23284924 -0.054820817 -0.005582036 0.29950663 0.20874819 -0.05012652 0.06753491
0.11443575 -1.1846993 0.3691198 -0.46922168 -1.030171 0.054810304 -0.59743065 -0.27776322
-0.7290786 -0.28800607 -1.0936613 0.08679049 0.15913828 -0.44676638 0.31981236 -0.13965203
0.066809446 1.0944709 -0.27078933 0.20695172 0.23746866 0.24951653 0.12634988 -0.7222979
-0.29106253 -0.22599705 0.7058477 -0.032546822 0.4521513 -0.060280703 0.444063 0.94784033
0.35790086 0.24889483 -0.31709427 0.28097108 0.022376081 0.301458 -0.500297 0.14880575
0.34194905 -0.058422092 0.35725626 0.45628732 0.25099075 0.6510194 0.2380039 0.25472263
0.27634558 0.28448263 0.16675346 0.11754243 -0.108012 0.049817298 0.03610154 -0.046658278
-0.08240866 0.73536193 0.20277084 0.051302146 -0.10868121 -0.061126072 -0.025707237 -0.17018583
00000000: abe0 1dbf 2c5a 733f 22da 103d cddf 143f
00000010: 248a 063f 80dc 413e c7bf af3e 6f5c cf3e
00000020: 665e 2b3f d63d 27bd 10d0 103e 7f58 1f3e
00000030: b382 243f c749 0b3f 4a56 3f3e d96c 493f
00000040: d98c 853f 900b 773f 5009 173e 02dc 293f
00000050: 8de0 7e3f 03e9 173f e60b b53e 38b1 c7bd
00000060: 5217 aa3e 3729 5d3e 308a 08bf e44a 953e
00000070: a20c 323e 7c7a a73e e265 04bf 5f63 b93c
00000080: 57c6 e2be 821d 1c3f be29 8f3c ad14 cabd
00000090: 0044 b8bd 2c25 4c3e 36ef 8dbd e5f2 d2be
000000a0: 6794 e5be f08c c3ba 4a3c 78be ec46 50be
000000b0: fdbd b43e 9c1b 963d c15b 80ba 3e7b 02bf
000000c0: b486 05bd d10d 79be 3fe4 c4be 784f 90be
000000d0: 3152 1e3e 4a12 e93d a0ea b1be 49a9 81be
000000e0: 30cf 46bd a672 71be 3af2 f1bc 1194 94be
000000f0: bd57 643e 978a 473e 690e c9be fcb9 8bbc
00000100: ce15 c23f 5a99 d33e 00a6 f03e 72fc 183f
00000110: 82be 0ebe 81c1 b9be f256 bf3d 949a c5bc
00000120: cb74 23bd a2ef 6e3f 579a 913e 3728 b53f
00000130: e267 203f 4bb4 b93e 8c42 7d3e 64aa 8a3e
00000140: 9f23 4abd cda1 a83e b7f8 023e 7a6a 753e
00000150: 2ae7 f53c 8245 853e ab4c ca3e 84c6 a93e
00000160: 8c87 02be 5e8f 8c3e 50cc 59bd 0234 6c3c
00000170: fe17 333f 7c16 58bd 413e 2ebf d3cf 7b3f
00000180: a7c2 b2be 25a4 96be e4df 26be b980 75be
00000190: eab1 c9bc b51e 08bf 0ab2 26be be42 0bbf
000001a0: c43f 1abf e16c 06be 8399 67be 09fa 94be
000001b0: 82fe c6be bf1e 5c3f 7cac dfbd 6da1 02bf
000001c0: 733c 253d 1d26 4cbf c950 2cbf 3607 35bf
000001d0: fb3f 10bf 0fd2 41be 29fc 4cbf dcf1 76bf
000001e0: 4fc8 8d3d cd52 8d3f b205 2bbf 2bac 16bf
000001f0: 053c 35bf bff4 32bf b83c 733d 6329 a4bf
00000200: 01cb f9bc fa52 88bd d815 f5be efd4 2b3e
00000210: 9803 c83e 489e f3be d977 a03d cd2b 3c3e
00000220: ef93 10bf 0849 3ebf 4a18 883f 6fec 21bf
00000230: 9d89 47be 3b0e e73e b518 0ebf 9ab0 8d3e
00000240: 674c f33e 3aae 8c3f 71b9 68bf 2231 713e
00000250: 8c85 afbe 04c2 eebd c66f 85be 196c ce3e
00000260: 4c49 5dbe a2e3 433e 3a01 3cbf 45cd 393e
00000270: 8b6e f43e d170 46be fa3a 55bf 2c9a 143f
00000280: 2b24 10bf 0574 7a3d c76d 463f a9fc 25bf
00000290: d194 0d3f fd51 9dbd beff 313f a0cb 95be
000002a0: 6c34 14be e838 743e 6c27 2fbe f351 32bc
000002b0: b690 86bd a0df 1abe db96 5d3e 475c 90bc
000002c0: 0641 473e fd0a 2c3d f336 a9be ce72 7abe
000002d0: b3e5 163e 13a9 043d b4f2 9fbe 3cbf d83e
000002e0: 5626 473e 0870 6ebe cb8b 60bd 83e9 b6bb
000002f0: ef58 993e 16c2 553e 7751 4dbd be4f 8a3d
00000300: 4a5d ea3d 3aa4 97bf 45fd bc3e d33d f0be
00000310: a5dc 83bf c580 603d 37f1 18bf fb36 8ebe
00000320: e5a4 3abf 8875 93be 18fd 8bbf 36bf b13d
00000330: 25f5 223e 90be e4be 72be a33e f100 0fbe
00000340: 64d3 883d 9f17 8c3f e6a4 8abe 27eb 533e
00000350: fc2a 733e 4381 7f3e dd61 013e 84e8 38bf
00000360: 2606 95be c56b 67be 6fb2 343f d14f 05bd
00000370: 6080 e73e e6e8 76bd 3a5c e33e aaa5 723f
00000380: c83e b73e 49de 7e3e 2e5a a2be 71db 8f3e
00000390: 0b4e b73c b458 9a3e 7713 00bf 8960 183e
000003a0: f213 af3e 014c 6fbd 4bea b63e 7e9e e93e
000003b0: dc81 803e 35a9 263f 4bb7 733e 016b 823e
000003c0: 2b7d 8d3e b5a7 913e 6bc1 2a3e 16ba f03d
000003d0: 6535 ddbd 390d 4c3d 35df 133d c01c 3fbd
000003e0: dfc5 a8bd ae40 3c3f 29a3 4f3e 3322 523d
000003f0: 4194 debd 555f 7abd fc97 d2bc 3245 2ebe

bias f4 [64]
-0.50360525 -0.399327 0.46464938 0.041775227 2.1519136 -0.5709503 -0.049174055 -0.3866964
-1.3033082 1.2716533 -0.23360741 0.69551295 -0.10632296 1.0434148 0.25024158 -0.96936184
-0.5029706 -0.3564811 0.4368222 0.92415464 -0.13816823 0.16675666 0.08618099 0.7460611
0.86995536 1.1808823 0.25896218 -4.3333475e-05 0.25660825 1.0884839 -0.8657613 -1.572924
0.31403807 0.2204135 2.6696084 0.3681436 -0.6166491 0.92088664 -0.23717785 2.1672287
-0.27715376 0.23066287 -1.5281067 0.48017102 -0.77031237 -1.4625251 1.1200892 0.73577017
-0.78831565 -0.83167404 0.5825534 -0.48031607 -0.13795204 0.30479407 -0.86681664 1.0271394
-0.10991417 1.3102489 0.2136069 -0.13577376 1.1024064 1.0053123 -0.29376227 0.74365175
00000000: 46ec 00bf 9774 ccbe 86e6 ed3e 801c 2b3d
00000010: f4b8 0940 cd29 12bf bc6a 49bd 12fd c5be
00000020: ced2 a6bf 89c5 a23f c836 6fbe 230d 323f
00000030: dabf d9bd 9e8e 853f aa1f 803e 1928 78bf
00000040: aec2 00bf b184 b6be 29a7 df3e 6695 6c3f
00000050: f97b 0dbe 42c2 2a3e a97f b03d dcfd 3e3f
00000060: 65b5 5e3f 2727 973f b196 843e f7c0 35b8
00000070: 2862 833e 7153 8b3f 88a2 5dbf 9355 c9bf
00000080: 99c9 a03e 14b4 613e ddda 2a40 517d bc3e
00000090: b7dc 1dbf 3abf 6b3f c0de 72be e0b3 0a40
000000a0: 19e7 8dbe e332 6c3e 0099 c3bf fad8 f53e
000000b0: 3133 45bf 0634 bbbf 155f 8f3f 6f5b 3c3f
000000c0: 0ecf 49bf 97e8 54bf 3822 153f fdeb f5be
000000d0: 4d43 0dbe f80d 9c3e b2e7 5dbf 4e79 833f
000000e0: ae1a e1bd 3cb6 a73f c4bb 5a3e 4708 0bbe
000000f0: a71b 8d3f 13ae 803f 0268 96be f65f 3e3f

weight f4 [20, 64]
0.41765094 -1.964404 0.5998098 0.6826358 -0.13040604 -3.3895328 0.40375662 0.25316203
0.11945114 0.24144976 -1.284705 0.3060085 0.31231958 -0.1289595 -0.58958423 -2.9186585
0.40240255 0.4941731 -2.6332722 0.66657746 0.39543283 0.12649916 -1.1882437 0.21867105
0.09894915 0.33046904 -0.21981834 -0.17499371 -0.6504281 -0.07550899 -1.1311446 -2.297745
0.22052279 -0.7251404 0.20055875 -1.8067136 -0.22718945 0.4014508 -2.5548184 0.0768226
-1.3973815 -1.7989031 -1.6813906 -0.18087116 -0.3492514 -1.4322972 0.019306457 0.22255987
-1.6966372 -0.9584008 -1.3749563 0.30010104 -0.033096027 0.7397524 -3.2784355 0.11720264
1.0706892 -0.94719815 -1.0126008 0.20582971 0.17311665 -0.22331205 -0.5161805 -0.001993091
0.47076192 -0.67046195 -0.20298858 0.08432827 -0.014376699 -0.4788501 0.30955493 -0.1452292
-2.0082524 -0.016421419 -0.7981769 0.1180945 0.72772217 -0.32982293 -0.33828154 -0.8360693
0.33462593 0.19448653 -0.66894126 -0.27918658 -0.47851455 -0.87362033 -0.5104008 -0.06953666
-0.045647953 0.07425873 -0.015021845 -0.27910346 0.24361572 0.023714477 -0.30284423 1.1019305
-0.47280195 0.419339 -0.10837491 0.34825233 0.2133166 0.03785909 -2.7569547 -0.0042699864
-0.030754356 -0.18517414 -0.9581897 -0.30201358 -0.9084813 -1.3741707 -0.07142378 -0.31117216
-0.086019374 -0.12750117 -1.2568992 -0.21427007 -0.15142012 0.5624305 -0.90363693 0.08864618
-0.16312249 -0.74589777 -0.23015666 0.4644996 0.15228476 -1.2744663 -0.009849073 0.33564338
0.15412064 -0.39021727 -0.77031803 0.21833242 1.815385 -3.542267 -0.14606723 0.0163017
0.21727972 -0.05986231 -2.0598183 -1.6171498 -0.9218273 0.74619365 -2.114252 -2.4360225
0.21089497 0.12319239 -0.41218394 -0.83991224 0.12616895 0.25533956 0.104802825 -0.63327444
0.17448638 -2.0307064 -1.4558833 -0.026539577 0.25580677 -1.1485015 0.28721395 0.20238258
-2.0503688 -0.25661165 1.6010051 -1.9302238 0.1542773 -0.9398375 0.17020169 1.5374538
0.021524712 -0.0656343 0.20676148 -1.6606538 0.059054136 0.14068605 -0.521026 -1.5264132
-3.2774193 0.7355705 0.4377737 0.32496193 0.011256422 -2.6152651 0.47271702 -0.8003764
0.043421913 -0.32640123 -0.16257246 0.109715134 0.35166034 0.5876786 0.05608144 -1.5435315
-0.41861576 -0.50528437 0.5964556 0.5973433 -0.2025514 -1.1134454 -0.323835 0.11894018
0.52261454 0.47624233 -1.2034656 0.6965447 -2.8375432 3.8531919 -0.20041838 0.206708
-0.29789335 -0.45476905 -0.74600995 -1.187131 -0.1327506 -1.4376537 0.35432005 0.51811206
0.79597586 0.33460978 -0.40394437 0.18201251 0.88557714 0.5620554 0.29680112 0.8956295
-1.2007939 -0.12006047 -2.8449504 -2.1101491 -0.46677396 -0.1335331 0.6430793 -0.042823065
0.22577742 0.72288066 0.7907995 -0.5498892 0.70867753 0.7079675 0.46087864 0.014634908
-1.6086048 0.2038945 1.0935037 -0.06505176 -0.87403095 -0.9639785 -0.91536045 0.16908163
-0.37508506 -0.46192852 -0.87786245 -0.8708431 0.34685883 -1.3634439 0.23221152 0.026554476
00000000: 58d6 d53e 9771 fbbf 238d 193f 38c1 2e3f
00000010: 2989 05be 1bee 58c0 30b9 ce3e 749e 813e
00000020: cda2 f43d 9b3e 773e 3771 a4bf 25ad 9c3e
00000030: 5ae8 9f3e f60d 04be feee 16bf 4dcb 3ac0
00000040: b507 ce3e 4204 fd3e 8887 28c0 d2a4 2a3f
00000050: 2c76 ca3e ff88 013e 5f18 98bf 4eeb 5f3e
00000060: daa5 ca3d 3d33 a93e 0f18 61be 8d31 33be
00000070: 7582 26bf 75a4 9abd 59c9 90bf 410e 13c0
00000080: bad0 613e cda2 39bf 465f 4d3e 6442 e7bf
00000090: 5aa4 68be f68a cd3e 2582 23c0 2b55 9d3d
000000a0: 66dd b2bf 7542 e6bf cf37 d7bf 4a36 39be
000000b0: 14d1 b2be 8455 b7bf 9328 9e3c bce6 633e
000000c0: 682b d9bf c159 75bf 91fe afbf d8a6 993e
000000d0: b38f 07bd 6a60 3d3f e3d1 51c0 f007 f03d
000000e0: 580c 893f 947b 72bf e79c 81bf 06c5 523e
000000f0: 7e45 313e eaab 64be 6824 04bf 859e 02bb
00000100: b507 f13e 65a3 2bbf 3ddc 4fbe 4db4 ac3d
00000110: 3f8c 6bbc d72b f5be fc7d 9e3e f7b6 14be
00000120: 3587 00c0 3686 86bc 5255 4cbf 87db f13d
00000130: 004c 3a3f 8dde a8be 3d33 adbe a308 56bf
00000140: 1754 ab3e 7a27 473e bc3f 2bbf 8bf1 8ebe
00000150: dcff f4be 95a5 5fbf a0a9 02bf 3d69 8ebd
00000160: 59f9 3abd f614 983d 2f1e 76bc a6e6 8ebe
00000170: 6676 793e dd44 c23c 660e 9bbe 0f0c 8d3f
00000180: 1913 f2be 9ab3 d63e aaf3 ddbd 214e b23e
00000190: ab6f 5a3e 2212 1b3d f271 30c0 3eeb 8bbb
000001a0: 8ff0 fbbc 4a9e 3dbe ec4b 75bf 86a1 9abe
000001b0: 3b92 68bf d3e4 afbf a146 92bd f551 9fbe
000001c0: ed2a b0bd ab8f 02be 13e2 a0bf 9d69 5bbe
000001d0: e00d 1bbe 72fb 0f3f c054 67bf 218c b53d
000001e0: 9509 27be 28f3 3ebf 30ae 6bbe e4d2 ed3e
000001f0: 89f0 1b3e b621 a3bf 025e 21bc 73d9 ab3e
00000200: cdd1 1d3e 8fca c7be 9033 45bf 8992 5f3e
00000210: 895e e83f 81b4 62c0 a692 15be 258b 853c
00000220: 937e 5e3e 2e32 75bd 10d4 03c0 c4fe cebf
00000230: e0fc 6bbf 8c06 3f3f e84f 07c0 cbe7 1bc0
00000240: daf4 573e 4b4c fc3d c609 d3be 7d04 57bf
00000250: 6f32 013e debb 823e dda2 d63d 461e 22bf
00000260: 8fac 323e 18f7 01c0 625a babf 8769 d9bc
00000270: 1bf9 823e 1902 93bf b50d 933e 613d 4f3e
00000280: 3e39 03c0 9a62 83be bced cc3f 9311 f7bf
00000290: defa 1d3e 3199 70bf 5a49 2e3e 49cb c43f
000002a0: 9854 b03c 476b 86bd 48b9 533e 4e90 d4bf
000002b0: c0e2 713d 0110 103e f661 05bf 8261 c3bf
000002c0: 3dc1 51c0 594e 3c3f e023 e03e 6961 a63e
000002d0: db6c 383c 8160 27c0 f707 f23e 78e5 4cbf
000002e0: 2ddb 313d 101e a7be 6579 26be 54b2 e03d
000002f0: d30c b43e 1b72 163f a7b5 653d 7192 c5bf
00000300: ce54 d6be 515a 01bf 50b1 183f 7eeb 183f
00000310: a269 4fbe 6185 8ebf b3cd a5be e996 f33d
00000320: 11ca 053f 09d6 f33e 290b 9abf c150 323f
00000330: 4f9a 35c0 b29a 7640 7a3a 4dbe 43ab 533e
00000340: 7a85 98be 7dd7 e8be 82fa 3ebf e9f3 97bf
00000350: c6ef 07be 0905 b8bf 7069 b53e fea2 043f
00000360: 13c5 4b3f f951 ab3e ccd1 cebe 7d61 3a3e
00000370: 2fb5 623f dde2 0f3f 51f6 973e fa47 653f
00000380: 9db3 99bf 44e2 f5bd ab13 36c0 af0c 07c0
00000390: fffc eebe e7bc 08be d8a0 243f 3d67 2fbd
000003a0: 3232 673e b50e 393f d671 4a3f 8ac5 0cbf
000003b0: e46b 353f 5c3d 353f 49f8 eb3e 41c7 6f3c
000003c0: c3e6 cdbf b8c9 503e eef7 8b3f db39 85bd
000003d0: 7ec0 5fbf 4cc7 76bf 1055 6abf bc23 2d3e
000003e0: 260b c0be e581 ecbe 98bb 60bf 93ef 5ebf
000003f0: 7b97 b13e 5485 aebf dbc8 6d3e c688 d93c

bias f4 [20]
-0.036754914 -0.13351044 -0.9267144 -0.035290863 0.24088629 0.5910774 -0.04239922 0.07926807
0.3749588 -0.1874527 0.10018496 0.09153019 0.004955354 0.07004358 0.36758104 -0.018083554
-0.29868582 -0.31031796 -0.4637091 0.2753817
00000000: 528c 16bd f6b6 08be 283d 6dbf 278d 10bd
00000010: e5aa 763e d950 173f ceaa 2dbd 4c57 a23d
00000020: 9afa bf3e 9af3 3fbe c62d cd3d 2e74 bb3d
00000030: 8660 a23b 0273 8f3d 9533 bc3e f623 94bc
00000040: 59ed 98be ffe1 9ebe 476b edbe d5fe 8c3e
